…
2022-04-23 14:20:52.382295: I tensorflow/compiler/xla/service/service.cc:176]   StreamExecutor device (0): GeForce RTX 2080 Ti, Compute Capability 7.5
2022-04-23 14:20:54.759413: I tensorflow/compiler/mlir/mlir_graph_optimization_pass.cc:116] None of the MLIR optimization passes are enabled (registered 2)
WARNING:tensorflow:multiprocessing can interact badly with TensorFlow, causing nondeterministic deadlocks. For high performance data pipelines tf.data is recommended.
Model: "sequential"
_________________________________________________________________
Layer (type)                 Output Shape              Param #   
=================================================================
conv1_1 (Conv2D)             (None, 256, 256, 64)      640       
_________________________________________________________________
conv1_2 (Conv2D)             (None, 128, 128, 64)      36928     
_________________________________________________________________
batch_normalization (BatchNo (None, 128, 128, 64)      256       
_________________________________________________________________
conv2_1 (Conv2D)             (None, 128, 128, 128)     73856     
_________________________________________________________________
conv2_2 (Conv2D)             (None, 64, 64, 128)       147584    
_________________________________________________________________
batch_normalization_1 (Batch (None, 64, 64, 128)       512       
_________________________________________________________________
conv3_1 (Conv2D)             (None, 64, 64, 256)       295168    
_________________________________________________________________
conv3_2 (Conv2D)             (None, 64, 64, 256)       590080    
_________________________________________________________________
conv3_3 (Conv2D)             (None, 32, 32, 256)       590080    
_________________________________________________________________
batch_normalization_2 (Batch (None, 32, 32, 256)       1024      
_________________________________________________________________
conv4_1 (Conv2D)             (None, 32, 32, 512)       1180160   
_________________________________________________________________
conv4_2 (Conv2D)             (None, 32, 32, 512)       2359808   
_________________________________________________________________
conv4_3 (Conv2D)             (None, 32, 32, 512)       2359808   
_________________________________________________________________
batch_normalization_3 (Batch (None, 32, 32, 512)       2048      
_________________________________________________________________
conv5_1 (Conv2D)             (None, 32, 32, 512)       2359808   
_________________________________________________________________
conv5_2 (Conv2D)             (None, 32, 32, 512)       2359808   
_________________________________________________________________
conv5_3 (Conv2D)             (None, 32, 32, 512)       2359808   
_________________________________________________________________
batch_normalization_4 (Batch (None, 32, 32, 512)       2048      
_________________________________________________________________
conv6_1 (Conv2D)             (None, 32, 32, 512)       2359808   
_________________________________________________________________
conv6_2 (Conv2D)             (None, 32, 32, 512)       2359808   
_________________________________________________________________
conv6_3 (Conv2D)             (None, 32, 32, 512)       2359808   
_________________________________________________________________
batch_normalization_5 (Batch (None, 32, 32, 512)       2048      
_________________________________________________________________
conv7_1 (Conv2D)             (None, 32, 32, 512)       2359808   
_________________________________________________________________
conv7_2 (Conv2D)             (None, 32, 32, 512)       2359808   
_________________________________________________________________
conv7_3 (Conv2D)             (None, 32, 32, 512)       2359808   
_________________________________________________________________
batch_normalization_6 (Batch (None, 32, 32, 512)       2048      
_________________________________________________________________
conv8_1 (Conv2DTranspose)    (None, 64, 64, 256)       2097408   
_________________________________________________________________
conv8_2 (Conv2D)             (None, 64, 64, 256)       590080    
_________________________________________________________________
conv8_3 (Conv2D)             (None, 64, 64, 256)       590080    
_________________________________________________________________
loss_layer (Conv2D)          (None, 64, 64, 313)       80441     
=================================================================
Total params: 32,240,377
Trainable params: 32,235,385
Non-trainable params: 4,992
_________________________________________________________________
None
Epoch 1/10
2022-04-23 14:21:10.543491: I tensorflow/stream_executor/platform/default/dso_loader.cc:49] Successfully opened dynamic library libcudnn.so.7
2022-04-23 14:21:17.594911: I tensorflow/stream_executor/platform/default/dso_loader.cc:49] Successfully opened dynamic library libcublas.so.10
…
