…
WARNING:tensorflow:sample_weight modes were coerced from
  ...
    to  
  ['...']
2022-04-24 00:50:21.291594: I tensorflow/stream_executor/platform/default/dso_loader.cc:44] Successfully opened dynamic library libcudnn.so.7
2022-04-24 00:50:27.329433: I tensorflow/stream_executor/platform/default/dso_loader.cc:44] Successfully opened dynamic library libcublas.so.10
Using multiple GPUS
Model: "sequential"
_________________________________________________________________
Layer (type)                 Output Shape              Param #   
=================================================================
conv1_1 (Conv2D)             (None, 256, 256, 64)      640       
_________________________________________________________________
conv1_2 (Conv2D)             (None, 128, 128, 64)      36928     
_________________________________________________________________
batch_normalization (BatchNo (None, 128, 128, 64)      256       
_________________________________________________________________
conv2_1 (Conv2D)             (None, 128, 128, 128)     73856     
_________________________________________________________________
conv2_2 (Conv2D)             (None, 64, 64, 128)       147584    
_________________________________________________________________
batch_normalization_1 (Batch (None, 64, 64, 128)       512       
_________________________________________________________________
conv3_1 (Conv2D)             (None, 64, 64, 256)       295168    
_________________________________________________________________
conv3_2 (Conv2D)             (None, 64, 64, 256)       590080    
_________________________________________________________________
conv3_3 (Conv2D)             (None, 32, 32, 256)       590080    
_________________________________________________________________
batch_normalization_2 (Batch (None, 32, 32, 256)       1024      
_________________________________________________________________
conv4_1 (Conv2D)             (None, 32, 32, 512)       1180160   
_________________________________________________________________
conv4_2 (Conv2D)             (None, 32, 32, 512)       2359808   
_________________________________________________________________
conv4_3 (Conv2D)             (None, 32, 32, 512)       2359808   
_________________________________________________________________
batch_normalization_3 (Batch (None, 32, 32, 512)       2048      
_________________________________________________________________
conv5_1 (Conv2D)             (None, 32, 32, 512)       2359808   
_________________________________________________________________
conv5_2 (Conv2D)             (None, 32, 32, 512)       2359808   
_________________________________________________________________
conv5_3 (Conv2D)             (None, 32, 32, 512)       2359808   
_________________________________________________________________
batch_normalization_4 (Batch (None, 32, 32, 512)       2048      
_________________________________________________________________
conv6_1 (Conv2D)             (None, 32, 32, 512)       2359808   
_________________________________________________________________
conv6_2 (Conv2D)             (None, 32, 32, 512)       2359808   
_________________________________________________________________
conv6_3 (Conv2D)             (None, 32, 32, 512)       2359808   
_________________________________________________________________
batch_normalization_5 (Batch (None, 32, 32, 512)       2048      
_________________________________________________________________
conv7_1 (Conv2D)             (None, 32, 32, 512)       2359808   
_________________________________________________________________
conv7_2 (Conv2D)             (None, 32, 32, 512)       2359808   
_________________________________________________________________
conv7_3 (Conv2D)             (None, 32, 32, 512)       2359808   
_________________________________________________________________
batch_normalization_6 (Batch (None, 32, 32, 512)       2048      
_________________________________________________________________
conv8_1 (Conv2DTranspose)    (None, 64, 64, 256)       2097408   
_________________________________________________________________
conv8_2 (Conv2D)             (None, 64, 64, 256)       590080    
_________________________________________________________________
conv8_3 (Conv2D)             (None, 64, 64, 256)       590080    
_________________________________________________________________
loss_layer (Conv2D)          (None, 64, 64, 313)       80441     
=================================================================
Total params: 32,240,377
Trainable params: 32,235,385
Non-trainable params: 4,992
_________________________________________________________________
None
Train for 1104 steps, validate for 8 steps
Epoch 1/10
   1/1104 [..............................] - ETA: 11:37:38 - loss: 5.7646
…
